assignment 2/ass_2.pt (torch, 816595 bytes, 4 tensors)

weight f4 [256, 784]
000000 24 97 ba bc 9d 69 0f 3d 37 11 61 3d dd b0 83 bc
       -0.022777148 0.03501283 0.054948058 -0.016075546
000010 8d d2 42 bd b2 10 2f bd 5c 20 a4 bc cc b9 51 3d
       -0.047564078 -0.04274053 -0.020034961 0.05120258
000020 82 94 44 bc b3 2c 89 bc b1 fc 94 3d 6a 2c b8 3d
       -0.011998298 -0.016744947 0.072747596 0.08992846
000030 9d d2 4f 3d 9c 38 23 3d c2 fa ec 3c 20 00 06 3b
       0.050737966 0.03984891 0.028928164 0.0020446852
000040 e0 56 43 3c 1f 9a 4e 3d 9c 7a 85 3c f8 2a 4a bc
       0.011922568 0.05043995 0.016293816 -0.012339346
000050 a7 11 1f 3d 34 0f 14 bd 5f a3 55 3d 9e 83 6e 3c
       0.038835194 -0.03614731 0.052157756 0.014557747
000060 cb 1c a5 3d d9 50 ec 3c c5 4b 1e b9 13 86 d9 3c
       0.080621324 0.028847145 -0.0001509628 0.02655319
000070 93 51 7b bd c4 91 53 3d 4d 6b 5d bc 25 f9 d8 bd
       -0.061357092 0.051652685 -0.013514352 -0.105943955
000080 2f 7e 36 bc 65 aa 23 3c be dc 3a 3d 46 cf b8 bc
       -0.011138483 0.009989356 0.045620672 -0.022559773
000090 64 42 45 3d 6e 05 2e bb 06 0e 17 bd 9f 1e 2a be
       0.04815902 -0.002655353 -0.03687861 -0.16613244
0000a0 75 d7 be bd 71 cf e9 bc 5b 5a 6a bd ee 0c 60 bd
       -0.09318439 -0.028541299 -0.057215076 -0.05469983
0000b0 58 79 3a bc 57 de 0d bd cf d3 63 be 68 b8 03 be
       -0.01138147 -0.034635868 -0.22248767 -0.12863314
0000c0 c3 c0 c8 bd c6 3c 6e bd 05 1d 3f bd 3b d6 6b bd
       -0.098023914 -0.058163427 -0.046658535 -0.057577353
0000d0 34 c3 92 3c 42 31 e5 bc 25 97 c2 bc a7 36 a1 bd
       0.017915346 -0.02797759 -0.023753712 -0.07871752
0000e0 e2 85 31 bd 8e cd 2d bd d4 35 35 bd b5 9f ac bc
       -0.04334057 -0.04243236 -0.044240788 -0.021072248
0000f0 85 e4 e4 bc de 14 50 3d 7d b8 f7 3c 7c 6e a5 bd
       -0.027940998 0.05080115 0.030239338 -0.08077714
000100 88 04 b0 bb 88 a9 0b bd 72 12 c1 bd 66 30 96 bc
       -0.005371634 -0.034097224 -0.09427346 -0.018333625
000110 9c 6a 1c bd 52 83 e8 bd 7f 39 1c be f6 d9 9c bc
       -0.038187608 -0.11353172 -0.15256308 -0.0191469
000120 75 9a 73 bd 82 57 70 bd 1b 97 b5 bd 17 69 1f be
       -0.059473474 -0.058677204 -0.08866712 -0.15567432
000130 09 2b 6d be 41 56 8d bd 41 d3 35 bd 2c 15 2b bd
       -0.23160948 -0.06901217 -0.04439092 -0.041768238
000140 a4 12 8a 3d 8d 74 a0 3d a0 ba 12 3d 72 57 2b bd
       0.06741837 0.0783473 0.03582251 -0.04183144
000150 28 b6 bb bc 8b ad 9d bc 4e 88 06 3e 91 89 3c bd
       -0.022914007 -0.01924779 0.13137934 -0.04602963
000160 bb 59 3c bd 21 bf d7 3b da 91 01 3e 66 86 65 3d
       -0.04598401 0.0065840636 0.12653294 0.056036375
000170 85 7c 66 bd 16 6a a1 bc 83 65 05 3d 4c 9a 46 3d
       -0.056271095 -0.019703906 0.032567512 0.048486993
000180 90 f5 e5 bd c1 ad 10 be b1 a9 b9 bd 0c e1 b1 3d
       -0.11228478 -0.14128782 -0.09065569 0.086855024
000190 0d 34 07 bd 66 76 a6 bd 33 b8 ec bd 08 0e 21 be
       -0.033008624 -0.081280515 -0.11558571 -0.15728009
0001a0 cd b6 5c be 76 3c 8d 3b ef e2 91 bd 52 29 f9 bd
       -0.21554108 0.004310186 -0.07123362 -0.12166084
0001b0 98 f9 80 bd a6 9f 24 3d 8f c2 2f bc d8 22 29 bc
       -0.06297606 0.040191315 -0.010727539 -0.010323249
0001c0 46 76 55 3c 5a 4b e1 3c 41 97 6f 3d 9c 0c 21 3d
       0.013028687 0.02750175 0.058493856 0.039318666
0001d0 03 fd c8 3d 66 7b 5d 3d fc 2a b8 3d a3 76 17 bd
       0.09813883 0.05407276 0.089925736 -0.036978375
0001e0 3d 58 c6 bd 72 63 2a be 8a cc bf 3d 95 42 4c 3e
       -0.09684799 -0.16639498 0.093651846 0.19947274
0001f0 0c 8d 55 3e c3 8a 82 3d d2 7a c4 3d 9a c6 a6 ba
       0.20854586 0.06374123 0.095937386 -0.0012723983
000200 ff 5d 10 be d9 dd 38 be c7 b9 bc bd 2d 44 f6 bd
       -0.14098357 -0.18053378 -0.09215122 -0.12024722
000210 e7 82 ca bd b6 71 09 be b6 dd 3b be 60 9d 6f be
       -0.09888249 -0.13422284 -0.18346295 -0.23399878
000220 f2 f8 99 bd a8 cf 29 3d a2 8e 39 3e 0d 47 88 3c
       -0.07518186 0.041457802 0.18120816 0.016635442
000230 1b ee 53 bd 21 50 e8 3c 81 5d 15 3c 51 c5 3f 3d
       -0.051740747 0.028358521 0.009116531 0.046819035
000240 ad 01 02 3c de 82 01 bd 4d a1 21 be 6f 26 d8 3c
       0.00793497 -0.031618945 -0.15784188 0.026385514
000250 aa 34 e7 bd 43 73 63 bd 2a 5c e6 3d 43 73 32 3e
       -0.11289342 -0.055529844 0.11248048 0.17426781
000260 8d 2f 48 3e b9 95 40 3e ef 93 1f 3d b8 af f0 bb
       0.19549389 0.18807115 0.03895944 -0.007345166
000270 10 18 f5 3b 72 5a 36 bd 29 25 04 be 1f 3b b7 bd
       0.007479675 -0.04451985 -0.129048 -0.08946823
000280 d9 94 f3 bd 19 61 74 bd 68 80 e2 bd ca 48 da bd
       -0.11893625 -0.059662912 -0.11059648 -0.10658415
000290 3f 27 98 bd 60 73 c5 ba ad 40 9a 3d a6 82 13 bd
       -0.074293606 -0.0015064292 0.07531867 -0.036013268
0002a0 4e d0 7f bd 7f 03 be 3c 6f 8c 06 be 6d a2 fc bd
       -0.062454514 0.023195026 -0.13139509 -0.12335668
0002b0 cd 2e 0e be 6b 81 70 bc 28 33 14 bd b2 2f d2 bc
       -0.1388504 -0.014679293 -0.0361816 -0.025657509
0002c0 92 9a 1b bd ca d7 05 3d 22 db 08 3d 5d 20 87 3c
       -0.037989207 0.032676496 0.033412106 0.016494924
0002d0 28 4e b4 3d f1 99 32 3e 7d 25 76 3d 8c f7 51 3c
       0.088039696 0.17441536 0.060094345 0.012815367
0002e0 d7 81 8b 3d 1f 7e b9 3d 60 89 fd 3d 5b b0 b6 bb
       0.06811874 0.09057259 0.12379718 -0.0055752224
0002f0 b6 61 28 be c8 2b b5 bd 4d 02 43 be 5a 54 9f be
       -0.16443524 -0.08846241 -0.19043846 -0.31119043
000300 7d f1 8f be 12 fb c2 bd f8 6e 78 bd ac ce 2d be
       -0.28113928 -0.09520544 -0.060652703 -0.1697337
000310 c6 78 39 3c 27 67 da bd b5 5f a8 bd 62 87 d0 bc
       0.011320299 -0.10664206 -0.0822138 -0.02545518
000320 a4 75 31 be a0 68 26 bd e6 93 ea 3b a0 03 bb bd
       -0.17330033 -0.040627122 0.007158744 -0.09131551
000330 6c 3d 9b 3d a4 83 27 3d c2 b2 e6 bb 02 03 24 bb
       0.07580075 0.040897027 -0.0070403526 -0.0025026207
000340 c5 b9 b4 bd 59 a1 3b 3c 7c c1 df 3d da 55 07 3d
       -0.08824495 0.0114520425 0.10925576 0.03304086
000350 58 06 27 3e 00 23 1d bb df 7a 53 bc 73 09 0f 3d
       0.16311014 -0.002397716 -0.012907713 0.03492112
000360 14 93 c5 bd 62 91 ef bc dd 7a 4d 3d 3c bd f8 bd
       -0.096471936 -0.029244129 0.050166 -0.121454686
000370 4f 67 25 bc 25 28 cf bc ef d2 5c bc f9 0b d3 ba
       -0.0100954315 -0.025287697 -0.013478025 -0.0016101591
000380 46 b2 62 be ad e1 5a bd e9 6f 00 3d df cf b3 3c
       -0.22138318 -0.053437877 0.031356726 0.021949707
000390 9e 37 03 be 28 7e e9 bd bc 2e 6a bd e5 75 0e bd
       -0.12814185 -0.114010155 -0.057173476 -0.0347804
0003a0 e0 27 b2 bc 56 2b 10 3d 28 ac 89 bc 63 af 95 bd
       -0.02174753 0.03519758 -0.016805723 -0.07308843
0003b0 01 4d ef bd 8d 39 a9 bd df 09 ff 3d 6c 1b 22 3e
       -0.11684609 -0.0826293 0.12453055 0.15830773
0003c0 72 c9 30 3e a7 27 c0 3d f9 36 31 3e 11 53 75 bc
       0.17264345 0.09382563 0.17306127 -0.014973418
0003d0 f4 4a d0 bd 4a 8a 9c 3c 0e 61 11 3d 23 0c e8 bd
       -0.10170546 0.01910891 0.03549295 -0.1133044
0003e0 9e 69 21 be 84 a5 00 bd d0 04 f4 3d 8f 8d ee 3c
       -0.15762946 -0.031407848 0.119149804 0.029120235
0003f0 fd cf 86 3d 6e 8b c5 bd 00 d8 43 3d c4 54 8e 3d
       0.06582639 -0.09645735 0.047813416 0.069497615

bias f4 [256]
000000 08 62 62 3c c8 b0 b8 3c ee 81 2d 3c b2 27 0c 3e
       0.013817318 0.022545233 0.01059006 0.13687018
000010 90 fb 4f bc 6e c7 67 3d 3a 8a c2 3c 3d 6a 3d bd
       -0.0126942545 0.056586675 0.023747552 -0.046243895
000020 ef 8f e8 bd ba 80 6e bc a1 0c 8c bd 04 d6 d2 3c
       -0.11355578 -0.014557058 -0.06838346 0.025736816
000030 0c ef 34 3d 0a 37 66 bd e9 05 88 3d 15 44 02 3c
       0.044173285 -0.056204833 0.06641752 0.007950802
000040 9e ff 8d 3d 30 d2 71 3c 22 8f b7 ba bd 8a af bc
       0.06933521 0.014759585 -0.0014004449 -0.02142846
000050 a4 56 91 bc 95 8c b7 3d de aa c8 3c 77 61 67 3d
       -0.017741509 0.08962361 0.024495538 0.056489434
000060 d0 ed 69 bd 5b af ce 3d 5d ab 05 3d 25 2a 3f 3e
       -0.05711156 0.1009204 0.032634128 0.1866842
000070 5f 85 85 3d c4 b3 f3 3c a4 3c 69 3d e2 18 1f 3d
       0.06519579 0.029748805 0.056942597 0.03884209
000080 09 5d 50 3c 33 fe 80 3d 31 e2 5d 3d 64 3e c0 3b
       0.012717494 0.06298485 0.05417079 0.0058668125
000090 c4 37 f9 3c 9e 55 a6 bd fa 02 92 3c 77 86 57 3c
       0.030422099 -0.08121799 0.017823685 0.0131546175
0000a0 d6 2f 9e 3c 19 c1 bc 3d ac 28 8f 3d be e7 79 ba
       0.01930992 0.09216518 0.069901794 -0.00095331285
0000b0 94 dc 5d 3d c3 f3 c6 3c 2d f4 7c 3d 7d 0e 6a bc
       0.054165438 0.024286157 0.0617563 -0.014285681
0000c0 88 34 e3 3d 98 b1 f0 3c dd a9 5c 3d 2c 07 18 3d
       0.11094004 0.029381558 0.05387293 0.037116215
0000d0 d0 ab af 3c c0 fe ea bc d5 0c a9 bc 3c 7a 86 3d
       0.021444231 -0.028685927 -0.020636002 0.06566283
0000e0 ed ef cf 3c ab c2 74 3b 0d 8d 86 3d 17 e8 67 3d
       0.02538296 0.0037347476 0.06569872 0.056617822
0000f0 ac ce 66 3d 32 d0 c7 3c 7e 8d 47 3d d4 61 e1 3c
       0.05634944 0.024391267 0.04871892 0.027512468
000100 b7 1b f7 3d 70 ca 7e 3a 66 a0 ef 3c 3d 40 34 bc
       0.12065833 0.00097194966 0.029251289 -0.011001644
000110 f8 c0 40 3c d3 f1 ea bb 16 aa 68 3d 79 c9 2d 3c
       0.011764757 -0.007169941 0.05680283 0.010607117
000120 da 77 48 bd 07 29 ce 3b a2 22 d5 3b ca ec 51 bc
       -0.048942424 0.006291512 0.0065043727 -0.012812803
000130 37 84 04 3d 17 3f 41 3e 4f 95 a8 bc f0 d3 3c 3d
       0.032352652 0.18871723 -0.020579008 0.046100557
000140 97 cb 8a 3d cd 05 dd bc 0d 11 f1 3c 2c 26 da bc
       0.06777113 -0.026980305 0.029427076 -0.02662953
000150 ed d6 b9 3c 5b cb eb bc 2d f7 59 bd a0 0a 1c 3d
       0.022685492 -0.02878349 -0.05321424 0.03809607
000160 d4 71 1a 3e d7 16 ca 3d be 3a 05 be 24 38 57 bd
       0.15082484 0.098676376 -0.1301069 -0.052543774
000170 6f dc 82 bd 5d 9d 54 3d 69 86 d2 bb 76 b5 2f bb
       -0.063897006 0.051907886 -0.0064247143 -0.002681104
000180 4e d6 9b bd fb 51 43 bd 97 a1 72 bd f4 40 f1 3c
       -0.07609235 -0.047685605 -0.059236135 0.029449917
000190 e5 15 bd 3c e0 1b 52 3d 44 b8 1d 3d 9d f6 8f 3d
       0.02308173 0.051296115 0.038505808 0.070294596
0001a0 40 23 ea bd 3f 19 cc bd 71 01 91 3d 2b 17 92 bd
       -0.11432505 -0.09965753 0.07080353 -0.07133325
0001b0 35 43 14 bb dc e9 8a 3d 49 ac 4f 3d c3 c7 a6 3c
       -0.0022623066 0.067828864 0.050701413 0.020358926
0001c0 a5 ae e2 3d ab a7 2c bd 2c 18 ac 3d 1a 86 70 3d
       0.11068467 -0.042152088 0.08403048 0.05872164
0001d0 18 11 68 b9 69 13 a2 3d 1f 5a 98 3d 7c ed af bc
       -0.00022131612 0.079138584 0.07439064 -0.021475546
0001e0 f2 3a 16 bd e0 08 dc ba ce d6 e4 3c 65 38 c7 3d
       -0.03667731 -0.0016787313 0.027934458 0.09727553
0001f0 b4 7d 38 bd f7 f3 d3 3d 6e 5e bd 3d 8e 41 c5 3d
       -0.045041755 0.10349267 0.09246527 0.09631644
000200 e7 01 f8 bc 24 7a ab bd dd e6 21 3c bd da c0 bc
       -0.030274345 -0.08372906 0.009881702 -0.023541803
000210 2d 23 d8 bc cc 37 f1 3b 17 26 7c 3c f6 3f 24 3a
       -0.02638396 0.007361388 0.015389941 0.00062656344
000220 ab ea d2 3d d9 e2 6e bd 7d 66 86 3d 51 d9 4f 3d
       0.102986656 -0.058321808 0.06562517 0.05074436
000230 10 b0 3e 3d 5a 42 80 bb a4 9b 59 bd 61 d4 a8 bc
       0.046554625 -0.0039141597 -0.053126946 -0.020609083
000240 a0 6c dc b9 78 9a ba 3d ca 43 b0 3b 1d 07 38 3c
       -0.00042042602 0.09111494 0.005379175 0.011232165
000250 3b 0c 12 3c 20 70 65 bd 82 95 89 3d b9 03 55 bd
       0.008914049 -0.056015134 0.067179695 -0.052005503
000260 3c 7c 53 3c 45 76 09 3d 9e 6c 7f 3d 3f 56 dd 3c
       0.012908038 0.033560056 0.062359445 0.027018664
000270 65 d3 2a 3d 32 2b bb 3d 87 7f 86 3d 74 80 a4 3d
       0.041705508 0.09139098 0.06567293 0.08032313
000280 96 7f ec bb ca d4 a7 bb 7e b6 0f 3d dd b9 0f bc
       -0.007217358 -0.005121802 0.035086147 -0.008772341
000290 5a 84 f9 3d 83 bc c3 3c 3c 87 19 bd 66 15 9b 3d
       0.12183447 0.0238936 -0.037482485 0.07572441
0002a0 8d 36 13 3d 36 2f 0d 3d ff 2a a9 3d 44 2b fd bc
       0.035940696 0.034468852 0.08260154 -0.03090442
0002b0 b9 28 9a 3c 72 18 51 bc 4f 64 5f 3c b9 a6 04 3e
       0.018818246 -0.012762176 0.013634755 0.12954225
0002c0 ea 03 55 3d 0d 7d d0 3c 0d 4c 3d 3d d8 2d cd 3d
       0.052005686 0.025450254 0.046215106 0.100185096
0002d0 3a 22 56 bc f1 e2 f0 bb 15 1d 9d 3d 6e 29 54 3d
       -0.013069684 -0.0073512723 0.076715626 0.051797323
0002e0 ba bd 80 3d 6c fa eb bc 78 1f 99 bd e4 a1 cb 3c
       0.062861875 -0.028805934 -0.07476705 0.024857469
0002f0 4e 95 12 3d 92 8c b8 ba de df b8 3d 7c d2 8e bb
       0.03578692 -0.0014079979 0.09027074 -0.004358588
000300 62 4b cc 3b 10 5c cc 3c 39 47 65 3c d4 2b 8c 3d
       0.0062345723 0.024946243 0.013994032 0.06844297
000310 47 5a 0d 3d e1 73 3a 3d fb 58 28 3c 74 84 9a bc
       0.034509923 0.045520667 0.010275121 -0.018861987
000320 f4 a4 b7 bb 8c 72 5e 3b 22 93 61 bd 69 4e ed bd
       -0.0056043807 0.0033942787 -0.055071957 -0.11587221
000330 8e 95 be 3c a0 4d dd bb 8b aa 3e 3d 7c 08 a6 3d
       0.023264673 -0.0067536384 0.04654936 0.08107087
000340 45 45 2e 3d cf 34 2c 3e df 8a b1 bc ef 92 c0 3d
       0.04254653 0.1681702 -0.021672664 0.09403025
000350 81 81 06 3e f9 59 a0 bb 37 6e 29 bd 7d a8 67 3d
       0.1313534 -0.004893538 -0.041364875 0.056557167
000360 dd 9b 27 3c 34 6f 45 b8 17 6c 43 bd 91 ba 31 3d
       0.010230032 -4.7072026e-05 -0.047710504 0.043390814
000370 cd dd ec 3c 25 61 c3 3d 25 35 e9 3c 88 48 26 3d
       0.028914357 0.09540013 0.028467724 0.040596515
000380 b7 11 d4 bc da 6c 29 3d d0 1a a9 3c c5 a5 52 3d
       -0.025887353 0.041363575 0.020642668 0.05142762
000390 e0 92 1c 3d 1f 5d 27 bd 2c c7 e6 3d 6a cb 14 3d
       0.03822601 -0.04086029 0.11268458 0.036326803
0003a0 6e 8a 1f 3d e7 19 a0 3d ff 08 81 bc 49 f7 00 3c
       0.038950376 0.078174405 -0.01575136 0.007871457
0003b0 d2 4d ad 3c c9 eb 2d 3c 1f fd b8 3c 98 97 56 3a
       0.021155272 0.010615298 0.022581635 0.00081860414
0003c0 ae 4b 3e 3d b5 6f 48 b9 18 20 50 3d f7 37 8e bc
       0.046458893 -0.000191151 0.050811857 -0.01736067
0003d0 71 9f 84 3d 6f 5c 53 bd 2f 5a d5 3d f9 e2 88 bb
       0.064757235 -0.051601823 0.10417592 -0.004177448
0003e0 86 fb d8 3b 12 7b e1 3c 6f a0 92 bc 61 2f 22 3d
       0.006621781 0.027524505 -0.017898766 0.039595965
0003f0 b0 bd 94 3c 82 a7 c0 bb 3a 99 70 bd b5 73 0f 3c
       0.018156856 -0.0058793435 -0.05873988 0.008755614

weight f4 [10, 256]
000000 df 39 5b 3d 1a 6a aa be 29 c7 db 3d 8e af ee 3d
       0.053521987 -0.33284074 0.10731346 0.11654578
000010 73 d7 d4 bd 49 17 92 bc 57 d6 28 be 7c a4 cd be
       -0.10392656 -0.017833369 -0.16488014 -0.40164554
000020 ee d6 d8 be 45 32 f2 3c a8 37 8b 3e a1 41 14 3d
       -0.42351478 0.029564986 0.271909 0.0361954
000030 89 f8 42 3d 46 e3 70 bd 1f 17 70 3d d5 28 85 be
       0.047600303 -0.058810495 0.0586158 -0.26007715
000040 1e b3 f0 3d 8c 6d 09 3e 22 b7 39 3e d6 2b 15 3e
       0.11752914 0.13420695 0.18136266 0.14567503
000050 a1 05 12 be bd 59 15 bf b4 1f 2b be 07 e5 12 be
       -0.1425996 -0.58340055 -0.16711313 -0.1434518
000060 86 f6 25 bd 4f fa 3b be 60 1e 6a 3e a0 c9 12 be
       -0.040518306 -0.18357204 0.2286315 -0.14334726
000070 1d 4b 84 3d 46 47 b7 be 8c c3 81 3e ce b6 1e be
       0.06459639 -0.35796565 0.25344503 -0.15499422
000080 a1 ea c3 be 02 08 74 be a9 99 aa be 8b 50 32 3e
       -0.38264945 -0.2383118 -0.33320358 0.17413537
000090 3d 28 8b 3e 50 68 f2 3d a8 98 14 3e fe c2 20 bf
       0.27179137 0.11836302 0.14511359 -0.62797534
0000a0 5e 1a 72 be cc 51 05 bd 9f da 25 be 3c 24 0f 3e
       -0.23642871 -0.03254871 -0.16196679 0.13978666
0000b0 d6 5b a3 be 01 11 69 be 84 ff 01 be ce 1d 6d bb
       -0.31906003 -0.22760393 -0.12695128 -0.0036181095
0000c0 14 68 1e 3e 38 76 bc bd d1 64 cb 3d 42 a0 2c 3e
       0.1546939 -0.09202236 0.099313386 0.16858009
0000d0 bf 43 3d bc d7 9d 46 3d 0f d6 d0 3d cd 2e 47 3c
       -0.011551796 0.04849037 0.101970784 0.012157154
0000e0 99 19 af be e9 18 78 3e 0b a0 1c bf 38 61 d9 be
       -0.34199217 0.24228252 -0.61181706 -0.42456985
0000f0 5d ca bd 3d 99 5f d0 3b 6d 33 5a 3e 27 a5 07 3d
       0.09267113 0.0063590524 0.2130868 0.033116486
000100 33 ec 3e be 91 b1 52 bd ec 58 af bd bc c4 2f 3e
       -0.1864479 -0.05143887 -0.085618824 0.17164892
000110 a5 00 d1 3d 90 3a 0e be c9 98 99 be 04 a1 d3 be
       0.10205201 -0.13889527 -0.29999378 -0.41333783
000120 24 78 9a be 8e 8b af be dc ef b7 3e b8 d1 4c 3e
       -0.30169785 -0.3428616 0.35925186 0.20001876
000130 83 e0 3e 3d 83 07 8c 3d 8a d2 27 3d f9 10 97 be
       0.04660083 0.0683737 0.04097227 -0.29505137
000140 27 90 25 3e 44 1e 6d 3d 43 2c 2f 3d 0a 3f c0 be
       0.16168271 0.05789019 0.04276682 -0.37548095
000150 4d b6 53 be f1 ff f6 3d 4b da 30 3e c5 88 e7 be
       -0.20675011 0.12060536 0.17270772 -0.45221534
000160 bc 91 96 3e 4c b1 5d bd 2e 6f 78 3d 02 df 65 3e
       0.29408062 -0.05412416 0.060652904 0.22448352
000170 a8 a0 93 3d a0 1c 01 3e 03 62 aa be 55 8e f4 3c
       0.07208377 0.12608576 -0.33277902 0.029853025
000180 7a b1 34 3e 56 73 eb 3d 95 d8 95 3e 92 37 05 3e
       0.17645827 0.11496608 0.292668 0.1300948
000190 b8 67 9e be 63 97 96 be cc 56 68 be 25 8f 59 be
       -0.30938506 -0.29412374 -0.2268936 -0.21246012
0001a0 40 51 35 3e 47 f5 e0 3d f8 41 90 be 59 f2 13 be
       0.17706776 0.10984283 -0.2817533 -0.14447917
0001b0 5e 59 a3 be 0b df 5e be a5 9a 2e be 45 b6 ba be
       -0.3190412 -0.21764772 -0.1705118 -0.36467186
0001c0 04 29 01 bf 6f af 64 be 45 36 fc 3d 7c d0 29 3e
       -0.5045321 -0.22332548 0.123150386 0.16583437
0001d0 a7 82 87 bc 38 82 de 3d 70 a3 f7 be 3e 8d aa 3d
       -0.016541792 0.10864681 -0.4836688 0.08327721
0001e0 00 fb fc 3c 7f 9a e9 3d 56 6a e4 3d fa 68 69 3d
       0.030881405 0.11406421 0.111530945 0.05698488
0001f0 85 79 e7 bd ac 1c 47 3e 1d df f0 bd 9e 92 77 bd
       -0.11302475 0.19444531 -0.117613055 -0.06044256
000200 4e 8e ba 3d 70 97 46 bd 59 72 15 3e ea fa 8a bd
       0.09109174 -0.048484266 0.14594401 -0.06786139
000210 80 e0 8e be 94 d9 68 bc 19 d2 c3 3a 83 8d 8b be
       -0.27905655 -0.014212031 0.0014939933 -0.27256402
000220 da 0b e2 bc 54 47 4a be 02 a7 94 bd 95 34 89 3d
       -0.027593542 -0.19753772 -0.07258417 0.06699482
000230 76 dd fc be ae bf 4e 3d 36 c1 fc be 82 19 4a 3d
       -0.4938771 0.05047577 -0.49366158 0.049340732
000240 6b c8 96 3e 00 09 cc be 2d 52 a3 be 1e 99 93 be
       0.29449782 -0.39850616 -0.31898633 -0.28827757
000250 f6 21 eb be e5 80 f3 3d 84 b6 d4 be 10 07 2a bd
       -0.45924348 0.11889819 -0.41545498 -0.04151064
000260 65 9b c6 bb 7c 78 9f 3b d6 0a 64 3e c5 71 32 3d
       -0.006061005 0.004866658 0.22269759 0.04356553
000270 3e cf e0 3e 9c 0c 6a bd ab 24 9e 3d d5 91 c1 be
       0.43908113 -0.05714093 0.077218376 -0.37806574
000280 9c 67 15 bd 8a 93 27 3e 1c ce a3 be 80 bb 5a 3e
       -0.036475763 0.16364875 -0.31993186 0.21360588
000290 c1 89 9e bc 66 13 93 3e a4 5a a7 be e2 0f 9c 3e
       -0.019352796 0.28725737 -0.3268634 0.30480868
0002a0 11 47 16 3e fa bf 9e 3d c3 bd 2b 3d 02 6b 6f 3d
       0.14675547 0.077514604 0.041929018 0.05845166
0002b0 9d ca fc bd ee 04 e0 be 4f c5 be be d9 6c 21 be
       -0.12343333 -0.4375376 -0.3725991 -0.15764178
0002c0 eb 2e 31 bf be 7c c7 bc d8 77 cd bc 6b 49 77 3e
       -0.69212216 -0.024351474 -0.02508156 0.241491
0002d0 a7 d8 21 3e 4f fe 2a bf 44 b3 b0 3d 48 21 f0 3d
       0.15805303 -0.66794294 0.08627942 0.11725098
0002e0 16 ec 83 bd f9 e9 29 ba 72 d1 42 be 83 65 3d 3d
       -0.06441514 -0.0006481703 -0.1902521 0.046239387
0002f0 89 21 8f be b0 5e 6d 3e e4 51 9f bd 82 b6 25 3e
       -0.27955273 0.23180652 -0.07779291 0.16182902
000300 52 de bd 3d a9 7c aa be 2a 16 a1 be c9 1d 04 3e
       0.0927092 -0.33298233 -0.31462222 0.12901987
000310 53 d5 23 3e e8 7d fb 3d 39 20 a0 3d 96 5a dc be
       0.15999345 0.12279874 0.07818646 -0.43037862
000320 11 5b ba be 6c 64 9d 3d fe 08 a7 3d 08 08 89 3e
       -0.36397603 0.076851696 0.08156012 0.2676394
000330 fd 4c 2c bd f8 87 42 3d f2 16 85 bd 78 91 1b be
       -0.04206561 0.04749295 -0.06498517 -0.1519221
000340 30 41 85 3d 5d 58 83 bc 66 fb 05 3e 20 32 28 be
       0.06506574 -0.016033346 0.13084182 -0.16425371
000350 5d 64 32 3e 3e a4 64 3c db 1b 57 3e 28 2a 0d be
       0.17421098 0.013955174 0.2100672 -0.13785613
000360 3b 76 65 bf 79 46 a2 be 32 09 62 be 6f 09 d4 3d
       -0.8963353 -0.3169439 -0.2207382 0.10353362
000370 84 0d b1 3d 38 69 83 bd ff 9f 8e 3d cc b4 0a bd
       0.08645156 -0.06416553 0.069641106 -0.033863828
000380 46 99 59 be f3 2f 88 3d af b2 c0 3d 34 0c 58 bf
       -0.21249875 0.066497706 0.09409081 -0.8439362
000390 33 fb a5 be ff a2 c1 3d 14 d3 a5 3d 35 8c 13 be
       -0.32418212 0.09454917 0.080969006 -0.14408953
0003a0 ee 1b 24 3e 72 bf 07 be 5d 0c 0e 3d 1e 69 cf 3d
       0.1602628 -0.13256624 0.03467976 0.101274714
0003b0 26 4d 03 3e 4b 57 96 3e 80 40 d8 bd 69 e1 62 bc
       0.12822399 0.29363474 -0.105591774 -0.013847687
0003c0 11 85 37 3d 3d b1 18 bd 21 7c bc 3d 53 8c e1 3d
       0.044804636 -0.037278403 0.09203363 0.11013093
0003d0 07 45 90 be 13 66 fd 3d 7a bb 48 be 55 2f 05 3e
       -0.28177664 0.12372985 -0.19602767 0.13006337
0003e0 76 32 33 3d 14 a8 07 3c 02 ac ff 3c 98 08 03 3e
       0.043749295 0.008279819 0.03120995 0.12796247
0003f0 2d d6 d8 be 58 c0 5e 3d aa 9a ca bc 9f d7 39 3d
       -0.42350903 0.054382652 -0.024731953 0.045371648

bias f4 [10]
000000 a9 0e 8a bd 91 22 b8 bd ef 48 93 3b ce 36 30 bd
       -0.067410775 -0.08990968 0.0044947783 -0.043021016
000010 36 1c 02 3c 80 47 0b 3d f5 b3 f4 bc 23 e0 1d bd
       0.007941296 0.034003735 -0.029870966 -0.03854383
000020 0f f3 bf 3d a4 7f 38 3d
       0.093725316 0.045043603
