assignment 3/ass_3.pt (torch, 252847 bytes, 10 tensors)

weight f4 [6, 3, 5, 5]
0.105417565 0.3226431 0.3791865 0.28633586 0.29473373 0.2540091 0.26500678 0.038877364
-0.102336496 0.015339604 0.38572267 -0.15776855 -0.044986807 -0.0988983 0.06862473 -0.28875583
-0.22807142 0.0723997 0.16747628 -0.04155146 -0.29253596 -0.1616662 0.2696123 0.06647143
0.22228287 -0.17640874 -0.120932564 -0.15449502 -0.16804032 -0.21336563 0.05308431 -0.0496458
-0.29042473 -0.2639583 -0.118793875 0.120976284 -0.301743 -0.2725108 0.089307785 0.030535169
-0.54153705 -0.31608436 0.2241809 0.22576506 0.0035607365 -0.29169595 -0.0848962 0.32699955
0.19684558 0.19844179 -0.17837493 0.05226033 -0.03144174 -0.025852134 -0.15151878 0.016130881
0.041981533 -0.25408047 -0.07493361 -0.04436691 0.044969015 -0.215074 -0.26152956 0.048940577
0.29479918 -0.087976106 -0.19610299 0.038618427 0.1808392 -0.06967041 0.09014119 0.053520206
0.34257632 0.10350865 0.24624877 -0.036037624 -0.02321353 -0.069872 0.16225086 0.109101094
-0.03838308 -0.079798505 0.04355709 -0.118286505 -0.0454581 -0.11949324 -0.1065698 -0.050996885
-0.054976106 0.0106360875 0.004208363 -0.1374046 -0.07100078 -0.009008006 0.008183237 0.0038256412
0.02229169 0.00020658458 -0.080924965 -0.07099594 0.10572288 0.015299824 -0.07398207 -0.079535075
-0.0106153935 -0.19184528 0.0053504286 -0.025083557 0.124589846 0.08842655 0.15225185 -0.09888238
-0.19307633 -0.02300273 0.092537865 -0.015765887 -0.012860446 -0.12945923 0.13054673 0.053204987
-0.06749907 -0.065621875 -0.17376351 0.012715524 -0.0025419162 -0.058873262 -0.012642237 0.075361796
-0.082898095 -0.21086253 -0.114859916 -0.016670845 -0.080712914 -0.049751315 -0.0356359 -0.04137437
-0.1412587 0.011671528 -0.19198707 0.034770105 -0.07819492 -0.020439202 -0.023430385 0.0452378
0.013796633 0.072119385 -0.15989879 -0.09764117 -0.048714925 0.040195942 -0.18170881 -0.1050553
0.059549864 -0.11855353 -0.032446846 -0.19230446 0.013371768 -0.11221412 -0.09769266 0.031572457
-0.041693784 0.014244506 -0.051815815 -0.07757481 0.04397549 -0.085920304 0.11512278 -0.029527927
0.025984652 0.09850714 0.080821656 -0.120039396 -0.06741176 -0.08422724 -0.02380866 -0.098340735
0.05310161 0.04605306 -0.03044644 0.12710465 -0.083845906 0.11985348 0.045109347 0.11054998
-0.06464912 0.07219233 -0.048195284 0.042776156 0.03340614 -0.04276851 -0.1366758 0.1236899
-0.18780825 -0.04020919 -0.053517032 0.07532687 -0.024425382 -0.08574155 -0.060493153 -0.04061032
-0.103385866 0.018817725 0.05662756 -0.06703564 -0.11085709 -0.059497733 -0.04165942 -0.12906073
-0.06305224 -0.016754434 -0.14006743 0.10610677 -0.026026884 -0.0057367 -0.16679156 -0.023291698
-0.03734123 0.14191394 -0.040728338 0.056867402 -0.16343537 -0.06480891 0.04279108 0.021929663
-0.05356905 0.5481237 0.35337985 0.26238197 0.06538443 0.27629513 0.5617179 -0.12738754
-0.21686871 -0.010157919 0.19480133 0.35007876 -0.62464523 -0.5399246 -0.24207343 0.12978268
0.28630325 -0.4411086 -0.24871013 -0.35666618 -0.19083536 -0.06745818 -0.27633965 -0.22070287
-0.41652521 -0.3164102 0.10048327 0.24140252 0.11002665 -0.16393258 -0.071173616 -0.049454216
00000000: 2ae5 d73d 7a31 a53e bc24 c23e 9d9a 923e
00000010: 57e7 963e 7b0d 823e f8ae 873e df3d 1f3d
00000020: cc95 d1bd f652 7b3c 717d c53e 148e 21be
00000030: 1644 38bd 318b cabd 1f8b 8c3d ced7 93be
00000040: 8e8b 69be 4b46 943d e77e 2b3e dd31 2abd
00000050: 46c7 95be d38b 25be a00a 8a3e 2c22 883d
00000060: 1f9e 633e 7ea4 34be 7eab f7bd f133 1ebe
00000070: c312 2cbe 857c 5abe ef6e 593d 6559 4bbd
00000080: 8db2 94be 8b25 87be 344a f3bd 6ac2 f73d
00000090: 0f7e 9abe 8986 8bbe 00e7 b63d e424 fa3c
000000a0: 2ca2 0abf cfd5 a1be ae8f 653e f52e 673e
000000b0: 3f5b 693b 2c59 95be 0fde adbd 7c6c a73e
000000c0: e391 493e 5334 4b3e eba7 36be ee0e 563d
000000d0: 0ec9 00bd dbc7 d3bc bd27 1bbe e924 843c
000000e0: d4f4 2b3d d616 82be cb76 99bd 14ba 35bd
000000f0: 6e31 383d 5c3c 5cbe 34e7 85be ea75 483d
00000100: ebef 963e d12c b4bd 39cf 48be 5b2e 1e3d
00000110: e92d 393e 5caf 8ebd f29b b83d 0138 5b3d
00000120: 2a66 af3e 58fc d33d a328 7c3e 309c 13bd
00000130: 4d2a bebc 0d19 8fbd 1725 263e 6570 df3d
00000140: 9437 1dbd 666d a3bd eb68 323d 3240 f2bd
00000150: 4632 3abd dfb8 f4bd 4441 dabd 1ce2 50bd
00000160: a02e 61bd fc42 2e3c 4fe6 893b cbb3 0cbe
00000170: db68 91bd 5196 13bc fc12 063c 9cb7 7a3b
00000180: 109d b63c a09e 5839 fdbb a5bd 5266 91bd
00000190: 3d85 d83d 1dac 7a3c e983 97bd 49e3 a2bd
000001a0: 30ec 2dbc 1773 44be a652 af3b 087c cdbc
000001b0: f628 ff3d fb18 b53d e9e7 1b3e d882 cabd
000001c0: cdb5 45be 3970 bcbc 7e84 bd3d 7627 81bc
000001d0: 9fb4 52bc f690 04be 0bae 053e 79ed 593d
000001e0: f43c 8abd c364 86bd 10ef 31be c654 503c
000001f0: 4796 26bb 1725 71bd 6321 4fbc 4957 9a3d
00000200: 7ac6 a9bd 59ec 57be ad3b ebbd 4c91 88bc
00000210: d04c a5bd 09c8 4bbd f3f6 11bd 2c78 29bd
00000220: 1fa6 10be f039 3f3c 4298 44be 196b 0e3d
00000230: a924 a0bd 1d70 a7bc 14f1 bfbc 454b 393d
00000240: 460b 623c 54b3 933d 82bc 23be 18f8 c7bd
00000250: 4d89 47bd 80a4 243d e011 3abe 3c27 d7bd
00000260: 8fea 733d 31cc f2bd fce6 04bd 76eb 44be
00000270: 4315 5b3c 84d0 e5bd 1713 c8bd 1f52 013d
00000280: 1ac7 2abd ca61 693c d23c 54bd 8bdf 9ebd
00000290: a51f 343d fcf6 afbd 7ec5 eb3d 8de4 f1bc
000002a0: c4dd d43c 1dbe c93d d385 a53d 37d7 f5bd
000002b0: 2d0f 8abd 557f acbd 610a c3bc de66 c9bd
000002c0: 1381 593d 22a2 3c3d d06a f9bc b927 023e
000002d0: 67b7 abbd be75 f53d 94c4 383d 0768 e23d
000002e0: c266 84bd 93d9 933d 6b68 45bd 0d36 2f3d
000002f0: e0d4 083d 082e 2fbd bef4 0bbe 2151 fd3d
00000300: ce50 40be 64b2 24bd ad34 5bbd f944 9a3d
00000310: bd17 c8bc 4499 afbd abc7 77bd 0257 26bd
00000320: f8bb d3bd a127 9a3c 4df2 673d fb49 89bd
00000330: 0b09 e3bd e5b3 73bd 11a3 2abd 7f28 04be
00000340: 8821 81bd 9840 89bc d66d 0fbe 824e d93d
00000350: 5536 d5bc edfa bbbb 68cb 2abe 3bce bebc
00000360: 1ef3 18bd e351 113e c2d2 26bd cbed 683d
00000370: 9a5b 27be 89ba 84bd b345 2f3d d6a5 b33c
00000380: 386b 5bbd d651 0c3f 34ee b43e ee56 863e
00000390: 46e8 853d 8e76 8d3e bfcc 0f3f e171 02be
000003a0: d512 5ebe 666d 26bc 007a 473e 863d b33e
000003b0: c0e8 1fbf 8038 0abf 19e2 77be c0e5 043e
000003c0: 5796 923e fdd8 e1be dead 7ebe f39c b6be
000003d0: 586a 43be 8427 8abd 647c 8dbe efff 61be
000003e0: cb42 d5be 8500 a2be 2cca cd3d 3932 773e
000003f0: a755 e13d f1dd 27be 79c3 91bd 8190 4abd

bias f4 [6]
0.08197188 0.017591283 0.0059911343 0.010167198 0.014669797 0.013295788
00000000: dfe0 a73d 981b 903c 4751 c43b 5294 263c
00000010: 9759 703c 94d6 593c

weight f4 [16, 6, 5, 5]
0.19619778 -0.02915269 0.16411299 -0.020514712 0.0009634865 0.0610687 -0.19488323 0.22921458
-0.22986266 0.034157638 0.11406117 -0.042594843 0.009251516 -0.030738853 -0.0022885613 -0.031921625
0.03674151 -0.14385743 0.19443373 -0.10335616 0.07654168 -0.019018952 0.08852807 -0.1158452
0.031851746 -0.066951714 -0.016774084 -0.08317294 -0.01963204 0.012807264 0.0016856594 -0.032025855
-0.13204741 -0.024650084 -0.10540996 -0.025417227 -0.025429871 -0.067918226 -0.081948735 -0.081562884
-0.053777426 -0.10600138 -0.1373826 0.016913902 0.022930244 -0.05652024 -0.04566916 -0.14480293
-0.06465918 -0.06390917 0.038961165 -0.016804488 0.024764756 0.0077503826 0.047463387 0.11919959
0.0094519 -0.020515619 -0.054019034 0.050109845 -0.043498967 0.07827849 0.015230321 0.046511006
0.03270326 -0.029278396 0.0049039423 -0.025071943 -0.04826903 -0.014230509 0.071135774 0.047447953
0.046579625 -0.026867038 -0.05184266 -0.13768466 -0.079664655 -0.11281939 -0.17258844 -0.040555965
-0.09200146 -0.12549816 -0.16976246 -0.15899797 0.003287481 -0.12989692 -0.14715874 -0.2121798
-0.07246793 -0.04597558 -0.14868113 -0.16154231 -0.14324516 0.07741035 0.03288728 -0.27712747
-0.06709739 -0.099928975 -0.06776805 0.027220706 -0.0961443 -0.01956992 -0.05543128 -0.16346513
-0.16319603 -0.041651603 -0.047604118 -0.030629098 -0.109635174 -0.11857356 -0.1006844 -0.07778111
-0.17162423 -0.1511723 -0.03797024 -0.17026448 -0.046205424 -0.12819032 -0.14566566 -0.067659155
-0.11974033 -0.0038490572 -0.1469338 -0.11533175 -0.08794192 -0.11983419 -0.14794724 -0.1511657
-0.060514536 -0.021172035 0.027099725 -0.0796442 -0.115324706 -0.06599931 -0.07596951 -0.098366976
-0.068982296 -0.1610416 -0.07256829 -0.15618172 -0.02199874 -0.05271933 0.037920564 -0.02529055
-0.086591266 -0.12807107 -0.1189395 0.1227782 -0.018687883 0.003507284 0.11419703 0.06726781
0.053648762 0.02996357 0.04230883 -0.023075687 0.038989548 0.036855105 0.0069724037 0.078456454
-0.017697506 -0.08289476 0.054734316 0.027430726 0.05230444 0.07293182 0.0125018 -0.039514422
0.016698675 0.11230124 -0.06627291 0.03306784 0.04786868 -0.04259293 0.07852469 0.01705832
-0.054335684 -0.096416414 0.063205145 -0.016333027 -0.021424362 -0.06337457 -0.13959399 0.08762573
0.071349494 0.051226854 -0.17496732 -0.035404697 0.01355901 -0.07561568 -0.020224279 -0.0889801
0.031276226 0.027461097 -0.06634661 -0.021836288 0.0020431643 0.025041888 0.06645394 -0.040655717
-0.00029026152 -0.11742017 0.012020008 -0.03793387 0.061125457 0.036625 0.07863932 0.052624658
0.028967667 0.0047510765 0.09438686 -0.12050838 0.046846267 0.138454 0.106818005 -0.07452953
-0.10942462 0.027270216 0.03331614 -0.02431987 -0.031018132 -0.038574677 0.039215498 -0.064650014
-0.10217337 0.04723812 0.0098186005 0.0062533407 -0.10629083 -0.14010873 0.116516665 -0.058685258
0.10731072 0.10564486 -0.090853065 0.1681724 0.07044734 -0.19031084 0.008095401 -0.13524313
-0.2466119 0.20732851 0.11403846 0.14215958 -0.100182235 -0.05236382 -0.24018729 -0.09312323
0.07850614 -0.0016325996 -0.09432714 -0.03838246 -0.12295787 -0.03888217 -0.10454208 -0.08631114
00000000: 12e8 483e 9fd1 eebc 3c0d 283e 780e a8bc
00000010: 7c92 7c3a 2c23 7a3d 788f 47be 3ab7 6a3e
00000020: 1e61 6bbe e1e8 0b3d e798 e93d ee77 2ebd
00000030: ac93 173c 0cd0 fbbc b0fb 15bb 40c0 02bd
00000040: 447e 163d 5d4f 13be a319 473e 65ac d3bd
00000050: e2c1 9c3d a2cd 9bbc 344e b53d 4040 edbd
00000060: fa76 023d fb1d 89bd ce69 89bc 9356 aabd
00000070: 5fd3 a0bc 8fd5 513c 58f1 dc3a 8b2d 03bd
00000080: 7037 07be f9ee c9bc 2de1 d7bd ca37 d0bc
00000090: 4e52 d0bc b618 8bbd bdd4 a7bd 710a a7bd
000000a0: b845 5cbd 4017 d9bd 06ae 0cbe 068f 8a3c
000000b0: 35d8 bb3c c481 67bd 960f 3bbd 3847 14be
000000c0: 086c 84bd d0e2 82bd be95 1f3d 91a9 89bc
000000d0: 75df ca3c ecf6 fd3b f868 423d ea1e f43d
000000e0: 24dc 1a3c 5f10 a8bc 1043 5dbd fb3f 4d3d
000000f0: f92b 32bd 7950 a03d 9988 793c 5382 3e3d
00000100: dbf3 053d 3fd9 efbc 40b1 a03b ad63 cdbc
00000110: bfb5 45bd 1527 69bc a2af 913d c958 423d
00000120: 47ca 3e3d 4318 dcbc f858 54bd 35fd 0cbe
00000130: 3927 a3bd da0d e7bd 06bb 30be 031e 26bd
00000140: 436b bcbd 9782 00be 36d6 2dbe 5dd0 22be
00000150: c772 573b b303 05be c8b0 16be a945 59be
00000160: 116a 94bd e450 3cbd de3f 18be 596b 25be
00000170: dcae 12be 5189 9e3d d0b4 063d a7e3 8dbe
00000180: 5b6a 89bd 90a7 ccbd fac9 8abd f5fd de3c
00000190: 4ee7 c4bd 1951 a0bc e90b 63bd 6763 27be
000001a0: dc1c 27be df9a 2abd 89fc 42bd e0e9 fabc
000001b0: 6888 e0bd b2d6 f2bd 9f33 cebd b44b 9fbd
000001c0: 43be 2fbe e9cc 1abe af86 1bbd d059 2ebe
000001d0: e641 3dbd 5344 03be 6129 15be e290 8abd
000001e0: 6b3a f5bd 7740 7cbb d075 16be 0d33 ecbd
000001f0: e51a b4bd a16b f5bd 7b7f 17be 2ecb 1abe
00000200: 17de 77bd fa70 adbc 3e00 de3c 801c a3bd
00000210: 5c2f ecbd a52a 87bd e795 9bbd a074 c9bd
00000220: 9746 8dbd 17e8 24be af9e 94bd 1aee 1fbe
00000230: b436 b4bc 39f0 57bd 9852 1b3d 212e cfbc
00000240: c356 b1bd 1025 03be 8d96 f3bd 2373 fb3d
00000250: 5517 99bc 76da 653b 22e0 e93d b5c3 893d
00000260: cebe 5b3d 2976 f53c 064c 2d3d 3909 bdbc
00000270: 81b3 1f3d 61f5 163d c378 e43b c7ad a03d
00000280: 5cfa 90bc bac4 a9bd 1731 603d 67b6 e03c
00000290: 2e3d 563d 475d 953d 5ad4 4c3c e0d9 21bd
000002a0: a9cb 883c 31fe e53d 17ba 87bd 2572 073d
000002b0: f311 443d ed75 2ebd 8dd1 a03d e4bd 8b3c
000002c0: 188f 5ebd f875 c5bd b371 813d d7cc 85bc
000002d0: 2582 afbc 87ca 81bd baf1 0ebe 1e75 b33d
000002e0: af1f 923d 40d3 513d a22a 33be 8404 11bd
000002f0: 9c26 5e3c 65dc 9abd 63ad a5bc 333b b6bd
00000300: 801b 003d 18f6 e03c bbe0 87bd 04e2 b2bc
00000310: 9ce6 053b a524 cd3c 0119 883d 9c86 26bd
00000320: 3e2e 98b9 fc79 f0bd 91ef 443c 8c60 1bbd
00000330: b05e 7a3d 1904 163d a70d a13d f48c 573d
00000340: 9a4d ed3c ebae 9b3b e64d c13d 19cd f6bd
00000350: dfe1 3f3d e3c6 0d3e 66c3 da3d f0a2 98bd
00000360: 041a e0bd ca65 df3c 8176 083d 773a c7bc
00000370: bd19 febc 7b00 1ebd 6ea0 203d 3a67 84bd
00000380: 4640 d1bd c27c 413d 32de 203c d3e8 cc3b
00000390: 02af d9bd aa78 0fbe 4aa0 ee3d f45f 70bd
000003a0: b9c5 db3d 555c d83d 2c11 babd 6335 2c3e
000003b0: b246 903d d8e0 42be 93a2 043c 2d7d 0abe
000003c0: d487 7cbe ed4d 543e ff8c e93d 4892 113e
000003d0: 582c cdbd 727b 56bd a8f3 75be 64b7 bebd
000003e0: d4c7 a03d f4fc d5ba 962e c1bd ed36 1dbd
000003f0: 56d1 fbbd e942 1fbd 281a d6bd e5c3 b0bd

bias f4 [16]
0.040483266 -0.16339317 0.3476842 -0.019728715 0.12071333 0.8218841 -0.26958627 0.0031294578
-0.03528376 0.028074995 0.13114552 0.053111155 0.3552978 -0.011329732 -0.033968985 0.12225727
00000000: c8d1 253d 8a50 27be aa03 b23e 1d9e a1bc
00000010: 8d38 f73d ff66 523f 3607 8abe 9717 4d3b
00000020: b485 10bd 88fd e53c 034b 063e 158b 593d
00000030: 98e9 b53e 57a0 39bc 1023 0bbd 0562 fa3d

weight f4 [120, 400]
0.04210263 -0.08069685 0.02633911 0.005724365 0.040111467 -0.009489613 -0.015229839 -0.09083982
0.004817299 -0.002470425 0.1674984 -0.064093694 0.03596585 -0.015550912 -0.035706945 0.027098842
-0.035677418 -0.08179789 0.07141969 -0.0032967648 -0.01751458 -0.07899079 0.015541533 -0.12860616
-0.0483516 -0.032562096 -0.012259577 -0.14367917 -0.022199726 -0.087332636 0.025804128 -0.04235073
0.03202356 -0.000115560855 0.09604483 0.07228359 -0.069367655 0.042224407 0.04406286 -0.08587376
-0.04599777 -0.008064784 -0.15402341 -0.01796178 -0.07228043 -0.056011096 0.0037347304 -0.05159162
0.0225256 -0.12922323 0.08810282 -0.029976457 0.0065998533 -0.032212134 -0.0023662224 -0.03772054
-0.042438436 0.13358876 -0.042799827 -0.008388051 -0.02258325 -0.014397768 0.10373483 0.07632128
-0.13323934 0.0013090867 0.010608452 -0.11676017 0.051101185 0.01323508 0.012177769 0.012403757
-0.032461867 -0.075841315 -0.027467217 -0.032164454 -0.07624382 0.04619397 0.07765844 -0.034488022
0.045964655 -0.0017591356 0.061977252 -0.0027430793 0.06669125 -0.106951654 -0.01458661 0.007878099
-0.05997688 -0.011677474 0.055629067 0.076383226 -0.05417638 0.005724157 0.038493663 -0.012485099
-0.023715341 0.017500538 0.02792749 0.02249115 0.1084666 0.038205482 0.028077496 0.06299115
-0.027816981 0.10696571 0.026588473 -0.02645973 0.01270243 0.012739205 0.056829926 -0.011592426
-0.025010794 -0.05054733 0.03978499 -0.014667754 -0.055552706 -0.012224121 -0.06279551 0.14073445
0.057553668 -0.06073348 0.024996515 -0.027981136 0.015348994 -0.003770203 0.07820907 -0.005239763
0.009397105 -0.001853339 -0.011542367 0.015200274 -0.059342902 0.0149611365 -0.05083876 0.099766895
-0.009816004 0.018970164 -0.05679309 0.05999708 -0.1861153 0.051720988 0.011278264 0.01529079
-0.025233118 -0.020842629 -0.046667665 -0.035891403 0.045052525 0.018828712 0.003526051 -0.017690288
-0.040230937 -0.122066975 -0.058855128 -0.11010892 -0.15843111 -0.09146496 -0.08844946 0.09179106
0.017104447 -0.075371765 -0.1576078 -0.008893201 -0.081300706 -0.04441608 0.017149352 -0.060165137
-0.0789807 -0.13126248 -0.12059596 0.008722969 -0.008574696 -0.12359997 -0.04428339 0.061466172
-0.0069912234 0.0062463363 0.114701174 0.027752917 0.10107626 -0.06951895 0.06697439 0.12296483
-0.0040604346 0.07112916 -0.014059561 -0.013251298 -0.0063522835 -0.054668244 -0.014851303 0.04978718
-0.08113296 0.100284524 0.0124470135 0.034828115 0.070488036 -0.005243385 -0.1819242 -0.07787898
0.026778592 0.041430563 0.054455783 0.013915271 0.030081358 0.018149544 -0.14749819 0.04447827
0.09444378 -0.024707377 0.021729587 -0.0031393205 0.029899525 0.048654445 -0.019810338 -0.00054448657
0.009397656 -0.1274377 0.05320052 -0.063261 0.030792825 -0.008708926 -0.0038325414 0.022092337
0.06268145 -0.005437798 -0.026633894 -0.053675983 0.0393391 -0.09164124 0.04396098 -0.032914024
-0.05413681 0.04470371 -0.06926831 0.026791317 0.004734043 -0.030167285 -0.015446229 -0.11371552
-0.071334794 -0.016762637 0.04189093 -0.06571034 -0.04582337 -0.00424255 0.026104541 -0.09533078
0.06107182 -0.0059378766 -0.0007488091 -0.004905524 0.07734495 -0.012506668 0.19297418 -0.018113824
00000000: cf73 2c3d 6444 a5bd 1ec5 d73c 7493 bb3b
00000010: ec4b 243d 527a 1bbc 9386 79bc 3a0a babd
00000020: 6fda 9d3b dbe6 21bb b384 2b3e 8e43 83bd
00000030: ed50 133d 41c9 7ebc 7241 12bd 64fe dd3c
00000040: 7c22 12bd a785 a7bd 7d44 923d 890e 58bb
00000050: bd7a 8fbc ecc5 a1bd eaa1 7e3c 55b1 03be
00000060: 540c 46bd d55f 05bd 65dc 48bc a220 13be
00000070: 33dc b5bc 74db b2bd 2e63 d33c f677 2dbd
00000080: 232b 033d 4359 f2b8 27b3 c43d 6b09 943d
00000090: a110 8ebd 80f3 2c3d 427b 343d 95de afbd
000000a0: 2868 3cbd 2822 04bc 50b8 1dbe 9524 93bc
000000b0: c307 94bd e46b 65bd 61c2 743b bc51 53bd
000000c0: 9b87 b83c 1853 04be 406f b43d 3091 f5bc
000000d0: 9543 d83b dff0 03bd a012 1bbb da80 1abd
000000e0: edd3 2dbd 7ecb 083e df4e 2fbd 096e 09bc
000000f0: 8200 b9bc 9ee4 6bbc ed72 d43d 554e 9c3d
00000100: e56f 08be a995 ab3a 13cf 2d3c f51f efbd
00000110: 7a4f 513d f3d7 583c 4485 473c 2139 4b3c
00000120: bcf6 04bd b152 9bbd ee02 e1bc e0be 03bd
00000130: b825 9cbd e335 3d3d 630b 9f3d 5043 0dbd
00000140: 6f45 3c3d cc92 e6ba dcdb 7d3d 3cc5 33bb
00000150: 6c95 883d 7809 dbbd adfc 6ebc 2413 013c
00000160: 51aa 75bd e052 3fbc 4edb 633d cf6e 9c3d
00000170: 0de8 5dbd b691 bb3b 88ab 1d3d 4d8e 4cbc
00000180: ad46 c2bc 4a5d 8f3c 31c8 e43c 5c3f b83c
00000190: bd23 de3d 5a7d 1c3d c702 e63c 8101 813d
000001a0: 70e0 e3bc d710 db3d 12d0 d93c 13c2 d8bc
000001b0: da1d 503c 19b8 503c 7fc6 683d 29ee 3dbc
000001c0: 70e3 ccbc b80a 4fbd 96f5 223d 0551 70bc
000001d0: 3c8b 63bd ae47 48bc ef9a 80bd b11c 103e
000001e0: 65bd 6b3d abc3 78bd 7ec5 cc3c b238 e5bc
000001f0: 597a 7b3c 8315 77bb 142c a03d 51b2 abbb
00000200: 51f6 193c bdeb f2ba 321c 3dbc 920a 793c
00000210: 8b11 73bd 8e1f 753c 4e3c 50bd 9652 cc3d
00000220: 4ed3 20bc 5167 9b3c df9f 68bd 80bf 753d
00000230: 0295 3ebe 63d9 533d 78c8 383c 3986 7a3c
00000240: afb5 cebc 29be aabc 9826 3fbd dd02 13bd
00000250: ff88 383d ac3e 9a3c 5215 673b 39eb 90bc
00000260: 32c9 24bd 40fe f9bd 1312 71bd c980 e1bd
00000270: c43b 22be fb51 bbbd fe24 b5bd f4fc bb3d
00000280: a01e 8c3c 835c 9abd f063 21be cab4 11bc
00000290: fc80 a6bd a3ed 35bd cc7c 8c3c b86f 76bd
000002a0: a2c0 a1bd ac69 06be 04fb f6bd c9ea 0e3c
000002b0: e27c 0cbc fb21 fdbd 8062 35bd f4c3 7b3d
000002c0: a216 e5bb 11ae cc3b 73e8 ea3d 165a e33c
000002d0: 1201 cf3d f45f 8ebd de29 893d fcd4 fb3d
000002e0: 650d 85bb 2aac 913d 135a 66bc f91b 59bc
000002f0: d126 d0bb cfeb 5fbd e152 73bc a4ed 4b3d
00000300: 0a29 a6bd f961 cd3d 8fee 4b3c eda7 0e3d
00000310: 085c 903d b4d0 abbb 564a 3abe 047f 9fbd
00000320: c75e db3c 18b3 293d 070d 5f3d e0fc 633c
00000330: 2e6d f63c 5aae 943c c409 17be d92e 363d
00000340: be6b c13d 2067 cabc 3f02 b23c 0fbd 4dbb
00000350: d9ef f43c e249 473d 4a49 a2bc e0bb 0eba
00000360: a0f8 193c 077f 02be cae8 593d fc8e 81bd
00000370: 3c41 fc3c e2af 0ebc 602b 7bbb fdfa b43c
00000380: 225f 803d 8e2f b2bb 532f dabc 59db 5bbd
00000390: 0922 213d 67ae bbbd 6e10 343d dbd0 06bd
000003a0: 8fbe 5dbd 3d1b 373d 8bdc 8dbd 7779 db3c
000003b0: 0820 9b3b 6221 f7bc 2e12 7dbc afe3 e8bd
000003c0: fa17 92bd cc51 89bc d395 2b3d 2593 86bd
000003d0: 49b1 3bbd 1705 8bbb 31d9 d53c c93c c3bd
000003e0: 7226 7a3d 8592 c2bb ba4b 44ba 85be a0bb
000003f0: 0767 9e3d c5e8 4cbc 069b 453e 7163 94bc

bias f4 [120]
0.040309157 -0.20774932 0.033111963 0.04939437 0.031640444 0.007731887 -0.002685712 -0.015440563
0.0037697642 0.019260768 -0.0054084975 0.101102374 -0.030356104 -0.017813893 0.08221264 0.043415595
0.07637799 0.00567332 0.038196806 0.09583964 0.0098237125 0.0056900526 -0.0023008336 0.045881603
0.008442853 -0.022260506 0.002191026 0.058516167 -0.012502135 0.06420835 0.009584121 -0.05655036
-0.0098460475 0.026007576 0.01920559 0.01622793 0.03608085 0.1432765 0.017340435 0.027991671
0.022600653 0.0019201501 -0.0055336854 -0.0837692 -0.012619671 0.0036305713 0.014429431 0.01166636
0.0011982695 0.020770045 -0.1394507 0.007876548 0.035039976 0.076600164 -0.014958655 0.011314701
0.008636539 0.0010637755 0.006265844 0.13933818 0.049108148 0.13899049 0.0075590312 0.0063689863
0.0015676217 0.015650116 0.009364263 0.06660473 0.013639075 0.009843688 0.010622733 0.06807383
0.0064755594 0.08034432 -0.004562426 -0.009367943 0.062379044 0.10199465 0.059972312 0.026944283
0.07595456 -0.021456264 0.017590465 0.0070127905 0.05064859 0.039975137 0.048165917 -0.014371256
-0.009805404 0.025028639 -0.0081360005 0.0020105513 0.028067894 0.009644754 0.0075343577 0.15503086
0.16809443 0.08257937 0.019035518 0.010500864 0.096368454 0.050300907 0.005834383 0.021261195
0.079254895 0.026677018 0.017579442 0.005224534 0.027408905 0.0233237 -0.0034181883 -0.022798
0.09150053 -0.026921289 0.018272307 0.023786131 -0.033353016 0.015641328 -0.0006054947 0.008098111
00000000: 371b 253d 3dbc 54be 69a0 073d c051 4a3d
00000010: 6999 013d c55b fd3b c502 30bb 6afa 7cbc
00000020: 260e 773b c2c8 9d3c c439 b1bb c30e cf3d
00000030: 5dad f8bc 71ee 91bc 1a5f a83d 8dd4 313d
00000040: 106c 9c3d 42e7 b93b 4174 1c3d 9347 c43d
00000050: a3f3 203c 9f73 ba3b 95c9 16bb 59ee 3b3d
00000060: e453 0a3c aa5b b6bc 5197 0f3b a6ae 6f3d
00000070: c1d5 4cbc ab7f 833d b806 1d3c 5aa1 67bd
00000080: 5151 21bc d70d d53c 0b55 9d3c 70f0 843c
00000090: 83c9 133d 13b7 123e 870d 8e3c ca4e e53c
000000a0: 0125 b93c 8cad fb3a eb53 b5bb 308f abbd
000000b0: bdc2 4ebc e1ee 6d3b 6c69 6c3c 4324 3f3c
000000c0: 410f 9d3a f125 aa3c 2acc 0ebe a30c 013c
000000d0: 1486 0f3d 8ce0 9c3d 2615 75bc 4c61 393c
000000e0: 4580 0d3c 626e 8b3a b651 cd3b abae 0e3e
000000f0: a025 493d 8653 0e3e c0b1 f73b eeb2 d03b
00000100: a878 cd3a ac34 803c 916c 193c 1068 883d
00000110: 6d76 5f3c 6c47 213c f90a 2e3c 4b6a 8b3d
00000120: ee30 d43b 908b a43d 6780 95bb 007c 19bc
00000130: 2b81 7f3d 92e2 d03d 87a5 753d 42ba dc3c
00000140: 108e 9b3d 0cc5 afbc e119 903c 8dcb e53b
00000150: e574 4f3d f8bc 233d a049 453d 6b75 6bbc
00000160: d8a6 20bc dc08 cd3c dc4c 05bc 74c3 033b
00000170: a4ee e53c 0805 1e3c c6e2 f63b 69c0 1e3e
00000180: f220 2c3e 5f1f a93d 60f0 9b3c d10b 2c3c
00000190: d35c c53d 5308 4e3d 5a2e bf3b f52b ae3c
000001a0: 6450 a23d c389 da3c c302 903c 9132 ab3b
000001b0: a488 e03c 5811 bf3c af03 60bb dfc2 babc
000001c0: a164 bb3d 098a dcbc ceaf 953c 22db c23c
000001d0: 2c9d 08bd 3e22 803c 10ba 1eba f0ad 043c

weight f4 [84, 120]
-0.09848286 -0.2171559 0.20872998 -0.11061954 0.032916192 -0.17750987 0.1508886 0.014563346
-0.045219608 0.046286378 0.060925364 -0.14843315 -0.044910986 0.054007288 0.05055554 -0.024837552
-0.16476272 0.004452208 -0.09321543 0.036975708 0.030967206 -0.133315 0.07852902 -0.1591187
-0.04466197 0.13880484 0.05171635 -0.12602735 -0.021652356 -0.043132465 0.02125743 -0.016508777
0.050646257 0.003238574 -0.06981776 0.023826577 -0.024470888 0.038937725 0.035721455 0.093562454
-0.12632507 0.14433046 0.012689873 0.03296661 -0.06515317 -0.0035454251 -0.058178235 -0.053204946
-0.03265007 -0.03387106 -0.10791542 -0.12627819 0.015249572 -0.0039700894 0.06733038 -0.116809025
-0.121512435 0.021469163 -0.087858684 -0.017280228 -0.12292603 -0.07662795 0.1240093 0.15134002
0.13236192 0.20925741 -0.014095502 -0.0059512067 -0.11747855 -0.004955476 0.19394465 0.050780315
0.01649761 0.0157412 0.005231526 0.089834765 -0.11167605 0.08004226 0.10794386 -0.111127116
-0.06369973 0.020702835 -0.05072546 0.02083998 0.01862721 -0.060479935 -0.027042735 -0.06069691
0.06844493 -0.053827386 -0.007987494 -0.29572588 0.07705763 0.06641133 0.14441153 0.13249733
0.041484326 0.030003257 -0.1128126 0.17066851 -0.03643631 -0.06683898 0.012632601 -0.008846029
-0.15074107 -0.069195315 -0.09590713 -0.068799265 0.034299795 0.06083123 -0.08939329 -0.08655369
-0.047480494 0.16726618 -0.1742374 0.05626149 0.10275477 -0.018006139 -0.04984841 -0.023176692
-0.15613227 -0.16764839 0.0011537065 0.0416076 -0.00082015427 0.16849594 -0.10099244 0.10644472
0.046227764 -0.005112191 0.06876075 -0.09157482 -0.03016362 0.073525876 0.04188177 -0.001287955
0.19889438 -0.09272452 0.053827498 -0.039280955 -0.053879865 -0.085025355 -0.012123087 -0.11509194
-0.007944872 -0.17182972 0.022648133 0.1791901 0.14363289 0.05742151 -0.060324512 0.010839395
0.03683931 -0.007872035 0.022852574 0.06484528 0.14724332 -0.070997015 0.010848822 0.018793283
-0.01378529 -0.0012707761 -0.13822305 -0.16521315 -0.19894113 0.13087438 0.03643193 0.0132118035
-0.025203845 -0.024019994 -0.11336077 -0.015346789 -0.10216273 -0.14551987 -0.03407148 -0.0021472436
0.13405384 0.0371238 0.07109037 0.031561818 0.09435436 -0.0097699575 -0.047091458 0.00071471126
-0.020923043 0.042005353 -0.06736594 0.0271504 -0.035280135 -0.14189711 0.1885213 0.032665767
-0.025575401 0.15163024 0.056615975 -0.04524491 -0.064186186 -0.020067163 -0.18364027 0.054849967
0.02565388 0.022316998 -0.039033905 0.050177902 -0.066015035 -0.0825819 0.07791252 0.1736358
0.12955536 -0.09747153 -0.047920138 0.188956 0.1405957 0.0027680364 -0.12630272 -0.038438097
0.02132928 -0.07352921 -0.20656097 -0.029604739 0.060812306 0.14987881 -0.021783158 0.10032259
-0.07533597 -0.24928772 -0.06678287 0.016686099 0.044471577 0.05226513 -0.004717513 -0.019474113
-0.18087296 -0.078463145 0.026920356 0.069110565 -0.0595911 -0.023569502 -0.09063252 -0.06428253
-0.10473483 -0.25152683 -0.06696227 0.22870925 -0.016493514 0.06472048 -0.04384832 -0.0696179
-0.18724023 0.09203452 0.26848647 0.1052368 -0.06741977 0.07995121 -0.11412765 -0.18231857
00000000: 62b1 c9bd 1e5e 5ebe 50bd 553e 7f8c e2bd
00000010: 21d3 063d 26c5 35be 8b82 1a3e 1a9b 6e3c
00000020: 3238 39bd c996 3d3d e08c 793d dcfe 17be
00000030: 95f4 37bd bf36 5d3d 5313 4f3d 1f78 cbbc
00000040: 8fb7 28be d4e3 913b bbe7 bebd d773 173d
00000050: f0ae fd3c ba83 08be d3d3 a03d 03f0 22be
00000060: 78ef 36bd db22 0e3e 86d4 533d 500d 01be
00000070: 4860 b1bc abab 30bd 1024 ae3c 6a3d 87bc
00000080: 7372 4f3d 413e 543b 9dfc 8ebd f42f c33c
00000090: 2c77 c8bc 2a7d 1f3d a950 123d ac9d bf3d
000000a0: 5c5b 01be 5dcb 133e 2fe9 4f3c ff07 073d
000000b0: 066f 85bd 5d5a 68bb 4d4c 6ebd 6eed 59bd
000000c0: 14bc 05bd 61bc 0abd c202 ddbd 124f 01be
000000d0: 57d9 793c 8617 82bb 83e4 893d 9239 efbd
000000e0: 83db f8bd 19e0 af3c 41ef b3bd 448f 8dbc
000000f0: a4c0 fbbd 1def 9cbd 96f8 fd3d e1f8 1a3e
00000100: e289 073e 9347 563e d2f0 66bc 5702 c3bb
00000110: 9898 f0bd 8c61 a2bb 6d99 463e 05ff 4f3d
00000120: ff25 873c b0f3 803c 396d ab3b 4afb b73d
00000130: 6ab6 e4bd 32ed a33d ac11 dd3d 9d96 e3bd
00000140: 0175 82bd fe98 a93c 80c5 4fbd 9bb8 aa3c
00000150: 1798 983c cfb9 77bd ba88 ddbc 539d 78bd
00000160: db2c 8c3d 1b7a 5cbd fadd 02bc 6269 97be
00000170: 64d0 9d3d aa02 883d 9ee0 133e 61ad 073e
00000180: 78eb 293d 64c9 f53c 4b0a e7bd bac3 2e3e
00000190: 3d3e 15bd e0e2 88bd f8f8 4e3c efee 10bc
000001a0: de5b 1abe 46b6 8dbd f56a c4bd a1e6 8cbd
000001b0: f17d 0c3d 2b2a 793d d413 b7bd 1043 b1bd
000001c0: e87a 42bd d347 2b3e 4a6b 32be 7372 663d
000001d0: 1871 d23d 9c81 93bc d92d 4cbd 0cdd bdbc
000001e0: 23e1 1fbe 05ac 2bbe f737 973a bb6c 2a3d
000001f0: 9fff 56ba 338a 2c3e 20d5 cebd b0ff d93d
00000200: 5359 3d3d 2b84 a7bb 70d2 8c3d 948b bbbd
00000210: b219 f7bc bc94 963d 388c 2b3d 99d0 a8ba
00000220: f8aa 4b3e 5ae6 bdbd 397a 5c3d 11e5 20bd
00000230: 22b1 5cbd c621 aebd ea9f 46bc 53b5 ebbd
00000240: 352b 02bc 21f4 2fbe 9488 b93c 9c7d 373e
00000250: 8014 133e d132 6b3d d616 77bd b897 313c
00000260: d1e4 163d b5f9 00bc 5235 bb3c 9acd 843d
00000270: f4c6 163e e266 91bd 42bf 313c 5ff4 993c
00000280: b2db 61bc 2c90 a6ba 588a 0dbe a32d 29be
00000290: 39b7 4bbe ef03 063e a639 153d 5276 583c
000002a0: 4b78 cebc 94c5 c4bc b129 e8bd 1971 7bbc
000002b0: b23a d1bd 2903 15be 898e 0bbd c5b8 0cbb
000002c0: 6945 093e 200f 183d d497 913d f746 013d
000002d0: dc3c c13d 2c12 20bc f9e2 40bd 765b 3b3a
000002e0: cd66 abbc ce0d 2c3d 27f7 89bd 846a de3c
000002f0: e781 10bd 7a4d 11be ba0b 413e 8acc 053d
00000300: 8183 d1bc f544 1b3e 27e6 673d ba52 39bd
00000310: 0c74 83bd e463 a4bc 320c 3cbe 5caa 603d
00000320: 1628 d23c 23d2 b63c 04e2 1fbd 5887 4d3d
00000330: e432 87bd b320 a9bd 9990 9f3d 95cd 313e
00000340: 29aa 043e 279f c7bd e847 44bd af7d 413e
00000350: 52f8 0f3e f267 353b 8055 01be 4471 1dbd
00000360: beba ae3c 7c96 96bd b884 53be a385 f2bc
00000370: 5316 793d d579 193e 9872 b2bc ee75 cd3d
00000380: bf49 9abd 4845 7fbe 75c5 88bd 49b1 883c
00000390: d427 363d f613 563d 5e95 9abb 2d88 9fbc
000003a0: c336 39be 49b1 a0bd 1488 dc3c d789 8d3d
000003b0: cc15 74bd d414 c1bc 8b9d b9bd 8fa6 83bd
000003c0: 377f d6bd 20c8 80be 8423 89bd c232 6a3e
000003d0: 681d 87bc 2c8c 843d 4c9a 33bd d493 8ebd
000003e0: e7bb 3fbe 987c bc3d 0f77 893e 6486 d73d
000003f0: 6013 8abd 76bd a33d c2bb e9bd b8b1 3abe

bias f4 [84]
-0.0110680815 -0.0017186317 -0.014471332 0.047838442 -0.0022797014 -0.08183065 -0.088208534 0.002947737
0.0019028757 0.08627038 0.24205102 -0.02391881 0.0026637556 0.053650644 0.10659059 0.4001519
-0.026434844 -0.0268608 0.043245476 0.2665851 0.13702613 0.027014218 0.08050091 -0.12964454
-0.13990557 0.009159319 -0.00062265794 -0.013689261 -0.017460553 -0.003905023 -0.0036526546 -0.026557196
-0.0024312858 0.007100607 -0.011086315 -0.012968609 0.01378034 0.17750147 0.09964712 -0.012246845
0.10033217 -0.10148488 0.00036989304 0.23680016 0.034131613 0.13159198 0.07891934 -0.04941989
0.009369184 -0.07532 -0.016873874 0.030198682 0.05730966 0.096040666 0.00094842626 0.032883532
-0.036953073 0.00639273 -0.010241037 0.26861295 0.013490398 -0.012767873 0.011944515 0.105443716
0.01933971 -0.014263735 0.012709908 -0.003491915 -0.0065137907 0.0077088512 0.024262613 0.26055452
0.089844815 -0.029394452 -0.0048467955 -0.052147683 0.0029933173 -0.06580123 -0.0012605026 0.058244847
0.007951607 0.043739907 0.021265669 -0.10750682
00000000: e656 35bc b643 e1ba 2a19 6dbc 3ef2 433d
00000010: 0b67 15bb d496 a7bd ada6 b4bd d22e 413b
00000020: ea69 f93a 86ae b03d 39dc 773e 61f1 c3bc
00000030: 6792 2e3b c7c0 5b3d 2b4c da3d b6e0 cc3e
00000040: e38d d8bc 2e0b dcbc 2b22 313d d87d 883e
00000050: 9450 0c3e ec4c dd3c a9dd a43d 8ac1 04be
00000060: 6843 0fbe f810 163c de39 23ba ec48 60bc
00000070: 6f09 8fbc 6aeb 7fbb 6061 6fbb 7a8e d9bc
00000080: 3556 1fbb 35ac e83b 60a3 35bc 4a7a 54bc
00000090: efc6 613c f2c2 353e ca13 cc3d fea6 48bc
000000a0: f47a cd3d 4ed7 cfbd 34ee c139 be7b 723e
000000b0: 97cd 0b3d 0cc0 063e 77a0 a13d 836c 4abd
000000c0: 3581 193c 5f41 9abd 143b 8abc 3a63 f73c
000000d0: 89bd 6a3d f8b0 c43d cf9f 783a e2b0 063d
000000e0: 1b5c 17bd 1b7a d13b 06ca 27bc a387 893e
000000f0: d506 5d3c 5730 51bc edb2 433c e0f2 d73d
00000100: 506e 9e3c 71b2 69bc 383d 503c 9dd8 64bb
00000110: a371 d5bb 889a fc3b 63c2 c63c 6767 853e
00000120: 8f00 b83d a2cc f0bc ded1 9ebb cf98 55bd
00000130: 882b 443b ccc2 86bd 7337 a5ba 2692 6e3d
00000140: 7547 023c 9e28 333d 5735 ae3c 892c dcbd

weight f4 [10, 84]
0.2224069 0.09620308 0.026966538 0.09427431 -0.01497982 -0.14072081 -0.09307557 -0.036962282
0.18404818 -0.13499898 0.055322655 0.13189043 -0.1335431 0.003300599 -0.026985426 0.1477816
0.12251009 -0.18926436 -0.23324642 -0.15753946 0.10873926 -0.18001801 0.08205719 0.03922147
0.11060723 0.043522794 -0.07953255 -0.04615828 0.056972556 0.17362583 -0.1467062 -0.10442788
-0.12161167 0.10874767 -0.103053965 0.12281034 -0.10060704 0.22255787 -0.22401516 -0.09345264
-0.3340851 0.049695615 -0.0064111706 0.07416143 -0.031770762 -0.34885702 -0.038435753 -0.05895723
0.009304403 0.122583516 0.11137597 0.064173386 0.07286579 0.047179982 -0.07849001 0.04934279
0.121253595 -0.12918022 -0.022416743 0.09404733 -0.2940842 0.030468633 0.14293431 0.15958373
-0.22390729 0.08614843 -0.09494573 0.18130523 0.06872315 -0.12817848 -0.2984062 -0.04717608
-0.12150793 -0.04491723 0.064199135 0.020085765 -0.06441298 -0.013357039 -0.24800688 0.111877
0.10883997 0.053818073 -0.1724145 0.050098147 -0.25646535 0.051076308 0.030423468 -0.0013511362
-0.08000562 -0.011719121 0.045609448 -0.031989116 0.095683984 -0.15744054 -0.005473643 -0.2038018
-0.17577572 -0.051078044 -0.07935537 -0.14265172 0.23659235 -0.040329684 0.020200573 -0.0011814944
0.047991455 -0.18514965 0.2032469 0.03886128 0.16938406 -0.14703454 0.067410216 0.06320237
0.17243275 0.0815107 0.011761696 -0.0029764324 -0.12013044 0.08378494 -0.2886483 -0.08080596
-0.1118696 -0.03938002 -0.002168728 0.14638522 -0.04903703 0.0973373 0.017962687 -0.12017007
-0.07533313 -0.26520047 -0.1575998 0.011213994 -0.19962399 0.23330532 0.09997238 -0.059343215
-0.016799143 0.0106508415 -0.08429091 -0.1547692 0.1505388 0.0110756215 0.040383916 0.01976899
-0.020630443 -0.052064706 0.048163768 -0.019997414 -0.099813156 -0.11528234 -0.0706125 -0.07469146
0.16448322 -0.002926788 -0.12549414 -0.06131585 -0.27017426 -0.04873227 0.012492135 0.21668078
0.15814716 0.0017949018 0.29620436 -0.053213246 0.28764424 0.024180068 0.084325515 -0.034936897
0.102869526 0.12418845 -0.0019118227 0.11696579 0.047927752 -0.051199958 -0.08287722 0.10714482
0.1940764 0.09142577 0.20219742 0.089005075 0.029499138 0.032268636 0.06704516 0.18991736
0.074377246 -0.020771656 -0.100755736 -0.022137556 0.054224316 0.41240263 0.18134479 -0.051014654
-0.015150319 -0.081723325 -0.2431521 -0.10443026 -0.029774783 -0.20846479 0.021047063 -0.14335054
-0.2745445 -0.03980529 0.28118023 -0.030818185 -0.119436316 0.07033369 0.0121796 0.022818554
0.02052546 -0.058604505 0.16610356 0.12301902 0.07574493 0.07355928 -0.044541597 0.07846709
-0.0053007817 0.19393718 -0.10687299 -0.036944877 0.04003798 0.008194558 -0.0804873 0.12238729
0.004653376 0.1775587 -0.0030629404 0.11309319 0.08379562 -0.030891536 0.06367395 0.097974576
0.16686636 -0.057458155 -0.073230915 0.03942795 -0.009437659 -0.17360397 0.014228956 0.04241194
-0.10253139 -0.039916467 -0.0730836 0.12182351 0.0032985343 -0.025339248 -0.04519741 0.10069036
0.20359299 0.11882364 -0.025405519 -0.12033511 -0.09893377 0.039816074 0.010373866 0.06578205
00000000: a2be 633e 1f06 c53d eee8 dc3c e412 c13d
00000010: eb6d 75bc 1e19 10be 689e bebd c365 17bd
00000020: 2077 3c3e 2c3d 0abe 029a 623d 490e 073e
00000030: 86bf 08be dd4e 583b 8a10 ddbc 0f54 173e
00000040: 92e6 fa3d 84ce 41be 26d8 6ebe 0652 21be
00000050: b0b2 de3d a456 38be 9a0d a83d b1a6 203d
00000060: 0b86 e23d f544 323d f6e1 a2bd 7710 3dbd
00000070: 0e5c 693d f8ca 313e 263a 16be 49de d5bd
00000080: 8a0f f9bd 19b7 de3d f50d d3bd fd83 fb3d
00000090: 100b cebd 36e6 633e 3b64 65be 1964 bfbd
000000a0: 340d abbe a18d 4b3d cc14 d2bb f3e1 973d
000000b0: 0f22 02bd 639d b2be cf6e 1dbd 237d 71bd
000000c0: 7f71 183c 110d fb3d 1619 e43d 566d 833d
000000d0: a93a 953d cc3f 413d 5fbf a0bd aa1b 4a3d
000000e0: ce53 f83d d247 04be 51a3 b7bc e39b c03d
000000f0: 3492 96be 5b99 f93c 5f5d 123e eb69 233e
00000100: f447 65be 976e b03d e872 c2bd 14a8 393e
00000110: b9be 8c3d 3841 03be b3c8 98be b53b 41bd
00000120: 26d9 f8bd 21fb 37bd d67a 833d e78a a43c
00000130: f4ea 83bd 7bd7 5abc 84f5 7dbe c51f e53d
00000140: 7de7 de3d 5770 5c3d 6d8d 30be b733 4d3d
00000150: 6d4f 83be 6435 513d a33a f93c 9c18 b1ba
00000160: fdd9 a3bd 8e01 40bc f9d0 3a3d 0507 03bd
00000170: f7f5 c33d 1838 21be 3f5c b3bb 6bb1 50be
00000180: 8dfe 33be 3637 51bd 1185 a2bd 4b13 12be
00000190: 4445 723e bd30 25bd ac7b a53c 60dc 9aba
000001a0: b092 443d df97 3dbe f51f 503e 012d 1f3d
000001b0: 0473 2d3e 3990 16be 5e0e 8a3d 3f70 813d
000001c0: 3692 303e 15ef a63d 21b4 403c 4010 43bb
000001d0: f306 f6bd 7097 ab3d b6c9 93be 987d a5bd
000001e0: e41b e5bd f24c 21bd 3821 0ebb 02e6 153e
000001f0: 0edb 48bd c758 c73d 7c26 933c ba1b f6bd
00000200: 4248 9abd 5bc8 87be d861 21be e6ba 373c
00000210: 3b6a 4cbe 97e7 6e3e 52be cc3d df11 73bd
00000220: 5b9e 89bc de80 2e3c b6a0 acbd d17b 1ebe
00000230: d826 1a3e 8676 353c 9b69 253d 94f2 a13c
00000240: 2d01 a9bc cd41 55bd 5f47 453d 9ed1 a3bc
00000250: d76a ccbd 2619 ecbd 499d 90bd d6f7 98bd
00000260: 4a6e 283e 5bcf 3fbb 8981 00be 5426 7bbd
00000270: 4854 8abe 7d9b 47bd d0ab 4c3c 91e1 5d3e
00000280: 54f1 213e e942 eb3a 19a8 973e 22f6 59bd
00000290: 1b46 933e 4715 c63c dbb2 ac3d fe19 0fbd
000002a0: 42ad d23d 8456 fe3d 2096 faba c38b ef3d
000002b0: e44f 443d 0cb7 51bd 88bb a9bd be6e db3d
000002c0: f7bb 463e 6f3d bb3d d70c 4f3e 4b48 b63d
000002d0: 2da8 f13c 1e2c 043d f94e 893d b279 423e
000002e0: 1953 983d 5229 aabc 0659 cebd d259 b5bc
000002f0: 511a 5e3d 7026 d33e 73b2 393e bef4 50bd
00000300: 0b39 78bc 8f5e a7bd ddfc 78be 88df d5bd
00000310: 3fea f3bc cb77 55be e46a ac3c 7cca 12be
00000320: 1991 8cbe df0a 23bd dbf6 8f3e 6b76 fcbc
00000330: 079b f4bd 1c0b 903d f28c 473c faed ba3c
00000340: 0225 a83c 470b 70bd 0d17 2a3e 65f1 fb3d
00000350: 2820 9b3d 3fa6 963d 4071 36bd 5bb3 a03d
00000360: 2eb2 adbb 7897 463e 3ae0 dabd 8353 17bd
00000370: ddfe 233d 7842 063c 87d6 a4bd 30a6 fa3d
00000380: 597b 983b f3d1 353e 9dbb 48bb 679d e73d
00000390: 0a9d ab3d 3f10 fdbc 7d67 823d e5a6 c83d
000003a0: 04df 2a3e 3e59 6bbd 17fa 95bd 347f 213d
000003b0: 69a0 1abc 3dc5 31be 9120 693c 24b8 2d3d
000003c0: fafb d1bd 737f 23bd dbac 95bd 9b7e f93d
000003d0: 392c 583b 4194 cfbc eb20 39bd bf36 ce3d
000003e0: ae7a 503e cf59 f33d 3c1f d0bc 4172 f6bd
000003f0: ca9d cabd 2e16 233d 26f7 293c bdb8 863d

bias f4 [10]
-0.2386945 -1.0897573 0.6183673 0.41191223 1.0816659 -0.22535498 0.20123546 -0.52172875
0.60803294 -0.7457054
00000000: 556c 74be 2b7d 8bbf 524d 1e3f 29e6 d23e
00000010: 0774 8a3f 75c3 66be ab10 4e3e 0490 05bf
00000020: 0ca8 1b3f 8de6 3ebf
